…
)","metadata":{"trusted":true,"execution":{"iopub.status.busy":"2025-09-23T14:16:28.055216Z","iopub.execute_input":"2025-09-23T14:16:28.055435Z","iopub.status.idle":"2025-09-23T14:26:31.778772Z","shell.execute_reply.started":"2025-09-23T14:16:28.055417Z","shell.execute_reply":"2025-09-23T14:26:31.778003Z"}},"outputs":[{"name":"stdout","text":"Model: \"sequential_1\"\n_________________________________________________________________\n Layer (type)                Output Shape              Param #   \n=================================================================\n conv2d_2 (Conv2D)           (None, 30, 30, 32)        896       \n                                                                 \n max_pooling2d_2 (MaxPoolin  (None, 15, 15, 32)        0         \n g2D)                                                            \n                                                                 \n conv2d_3 (Conv2D)           (None, 13, 13, 64)        18496     \n                                                                 \n max_pooling2d_3 (MaxPoolin  (None, 6, 6, 64)          0         \n g2D)                                                            \n                                                                 \n conv2d_4 (Conv2D)           (None, 4, 4, 128)         73856     \n                                                                 \n max_pooling2d_4 (MaxPoolin  (None, 2, 2, 128)         0         \n g2D)                                                            \n                                                                 \n flatten_1 (Flatten)         (None, 512)               0         \n                                                                 \n dense_2 (Dense)             (None, 128)               65664     \n                                                                 \n dropout_1 (Dropout)         (None, 128)               0         \n                                                                 \n dense_3 (Dense)             (None, 43)                5547      \n                                                                 \n=================================================================\nTotal params: 164459 (642.42 KB)\nTrainable params: 164459 (642.42 KB)\nNon-trainable params: 0 (0.00 Byte)\n_________________________________________________________________\nEpoch 1/20\n1088/1088 [==============================] - 30s 26ms/step - loss: 2.1
…
